backend/models/mnist/lr.pth (torch, 943321 bytes, 6 tensors)

lr_model.0.weight f4 [256, 784]
0	0xbcf6cccc	-0.030126952
1	0x3c5ea128	0.013588227
2	0xbd022c97	-0.031780805
3	0x3c6d9194	0.014500041
4	0x3c6e4be4	0.014544461
5	0x3cd4ec0e	0.025991466
6	0xbb8da058	-0.004322093
7	0x3c87c2ce	0.016572382
8	0x3ca3a8a6	0.019977879
9	0xbbf9b85c	-0.0076208543
10	0x3c8923bc	0.016740672
11	0xbb623010	-0.003451351
12	0xbc5034cb	-0.012707899
13	0xbccdbc67	-0.025114251
14	0x3d6a6da5	0.05723347
15	0x3ca6f74e	0.020381596
16	0x3bdfb0b8	0.0068264864
17	0x3c8523fe	0.016252514
18	0xbc8c1887	-0.01710154
19	0xb944ae00	-0.00018756837
20	0xbcd07a8e	-0.025449064
21	0xbcbb6e7c	-0.022879831
22	0x3d0e021f	0.03466999
23	0x3b9ee2c8	0.004848812
24	0xbd03a32d	-0.03213804
25	0x3c2490b4	0.010044266
26	0xbcb3da48	-0.02195467
27	0x3d034f35	0.03205796
28	0x3cf84cd6	0.030310076
29	0xbcb55c8a	-0.022138853
30	0x3ca9f450	0.02074638
31	0xbc200c72	-0.009768592
32	0xbd1b3be8	-0.037898928
33	0x3bb4208b	0.0054970435
34	0xbd92723e	-0.07150696
35	0xbd44891e	-0.047982328
36	0x3b95b42a	0.0045685964
37	0x3caef5a9	0.021357374
38	0x3d9b2ba0	0.0757668
39	0x3cc0aa95	0.02351884
40	0x3c081ff2	0.008308398
41	0xbba41766	-0.005007672
42	0xbdd4d583	-0.10392287
43	0xbd3b53a1	-0.04573405
44	0xbc8127f3	-0.01576612
45	0xbd22747a	-0.039661862
46	0xbd6be9a2	-0.057595856
47	0xbd73e750	-0.05954677
48	0xbdc9272f	-0.09821927
49	0xbd07e145	-0.03317382
50	0xbce802dd	-0.028321678
51	0x3aaa501b	0.0012993844
52	0x3d041d27	0.032254364
53	0x3a83c4e0	0.001005318
54	0x3cb6f3b6	0.022333007
55	0xbd004fa0	-0.031325936
56	0x3ca6cefe	0.020362373
57	0x3cf6bcd6	0.03011934
58	0xbc3378f4	-0.01095413
59	0xbd0b754d	-0.034047414
60	0xbd965c09	-0.07341773
61	0x3cafa3ae	0.021440353
62	0x3c6ba643	0.014382902
63	0x3ca46dab	0.020071825
64	0x3d9b9be7	0.075980954
65	0x3e38cd56	0.1804708
66	0x3e437c62	0.19090417
67	0x3d94afaa	0.07260068
68	0xba6a0dc2	-0.00089284417
69	0xbe00a884	-0.12564284
70	0xbdd21b83	-0.10259154
71	0x3da9dd6b	0.08294185
72	0x3de81991	0.113330014
73	0x3d290f53	0.04127438
74	0x3a6510f4	0.0008738183
75	0x3db92ede	0.09042142
76	0x3db5dc37	0.08879893
77	0x3d9f91b5	0.07791463
78	0x3d96047f	0.07325076
79	0x3d8c82f0	0.06860912
80	0x3d58da26	0.052942418
81	0x3d439a86	0.047754787
82	0x3d0c815d	0.034303058
83	0xbd065bdf	-0.03280246
84	0x3cd66572	0.02617142
85	0xbbd6d7e4	-0.006556498
86	0xbe0068ac	-0.12539929
87	0xbe09e6c7	-0.13466941
88	0xbdc4cb0c	-0.096090406
89	0xbd63919e	-0.055558793
90	0xbd53735f	-0.0516237
91	0x3c5df323	0.013546738
92	0xbd47f917	-0.048821535
93	0x3c562534	0.013070393
94	0xbd335922	-0.043786176
95	0xbc6296ce	-0.0138299
96	0xbe062a0c	-0.13101977
97	0xbe002327	-0.1251341
98	0xbe206a80	-0.15665627
99	0xbe36c61a	-0.17849007
100	0xbdcef8d2	-0.101060525
101	0xbcb5b8eb	-0.022182902
102	0xbe2aee47	-0.16692458
103	0xbdba32ef	-0.09091746
104	0xbb9e72e3	-0.004835473
105	0x3d844201	0.06457902
106	0x3d89e407	0.06732946
107	0x3db4c4f1	0.08826626
108	0x3dff335d	0.12460969
109	0xbc2e7a12	-0.010649221
110	0x3d9170e7	0.071016125
111	0x3ca296b2	0.019847248
112	0xbbf7e1d4	-0.0075647626
113	0xbb74e2b3	-0.0037366569
114	0xbdb431a0	-0.08798528
115	0xbdf21642	-0.118206516
116	0xbe313009	-0.1730348
117	0xbdb4ca6d	-0.08827672
118	0xbce91db1	-0.02845654
119	0xbe32a138	-0.17444313
120	0xbe065d5e	-0.13121554
121	0xbda9aa05	-0.08284382
122	0xbe4280ac	-0.18994397
123	0xbde94f7a	-0.11392112
124	0x3c94e83b	0.018177142
125	0xbdfbad8b	-0.1228896
126	0xbe65697b	-0.22403519
127	0xbe12574b	-0.14291112
128	0xbd5037f2	-0.050834604
129	0xbd88e877	-0.06684964
130	0x3ca0c0ba	0.01962315
131	0xbd012b88	-0.031535655
132	0xbdd3a0f9	-0.103334375
133	0xbdba7549	-0.091044016
134	0xbd3ce92b	-0.046120804
135	0xbca44332	-0.020051572
136	0x3e26f325	0.1630369
137	0x3dcbae07	0.099453025
138	0xbda3a0d4	-0.0798966
139	0x3c400034	0.011718798
140	0x3c512c68	0.012766935
141	0x3cf98e16	0.03046326
142	0xbd3960d6	-0.045258366
143	0xbd88aebc	-0.06673953
144	0xbddc8a7f	-0.107686035
145	0x3d958444	0.07300618
146	0xbc6adeea	-0.014335373
147	0x3cd091de	0.02546018
148	0x3e03bea0	0.12865686
149	0x3d209335	0.039202888
150	0xbcb9764c	-0.022639416
151	0xbd1fcf16	-0.039015852
152	0xbd260436	-0.04053136
153	0xbd884dc0	-0.06655455
154	0xbd9955ad	-0.074870445
155	0xbd58a63a	-0.0528929
156	0xbcc64e72	-0.024207328
157	0xbd054811	-0.03253943
158	0xbc4c4107	-0.012466676
159	0xbda0cf92	-0.07852091
160	0xbc5b5773	-0.013387549
161	0xbd07c080	-0.033142567
162	0xbd347066	-0.044052504
163	0xbc06b43e	-0.008221684
164	0x3cba6296	0.022752088
165	0xbc941caa	-0.018080074
166	0xbe2f9b20	-0.17149019
167	0xbd5c381b	-0.053764444
168	0xbc55122e	-0.013004823
169	0xbd24b422	-0.04021085
170	0xbd5a0944	-0.053231493
171	0xbd303e08	-0.043027908
172	0xbdcd13f5	-0.10013572
173	0x3dc4bb9c	0.09606096
174	0x3dd0042e	0.10157047
175	0x3d9ceb65	0.076620854
176	0x3dcea7b2	0.10090579
177	0x3e0db94c	0.13840216
178	0x3d81c42e	0.063362464
179	0x3c81ed53	0.015860235
180	0x3b87b226	0.00414111
181	0xbd7a7196	-0.06114348
182	0xbdf030b2	-0.11728038
183	0xbdad5b97	-0.08464735
184	0x3bb887d8	0.005631428
185	0x3a8bc1fc	0.001066267
186	0xbcd7eb33	-0.026357269
187	0xbd98d595	-0.074626125
188	0xbd135fbc	-0.03597997
189	0x3cb92289	0.022599475
190	0xbdbfd438	-0.093666494
191	0xbe61b44b	-0.22041433
192	0xbe661989	-0.22470678
193	0xbd82d28a	-0.063878134
194	0x3d6bf804	0.057609573
195	0x3d427887	0.047478225
196	0xb9254e9e	-0.00015764913
197	0xbc254760	-0.010087818
198	0xbd110e6e	-0.03541415
199	0x3d2d4809	0.042305026
200	0xbe219c69	-0.15782322
201	0xbb8d542d	-0.004313013
202	0x3e0052d5	0.12531598
203	0x3cfb44ff	0.030672548
204	0x3dc97c5c	0.09838173
205	0x3e1e9455	0.15486272
206	0x3d244858	0.040108055
207	0xbd9875ac	-0.07444319
208	0xbe06de31	-0.13170697
209	0xbdc95c23	-0.09832027
210	0xbdf25144	-0.118319064
211	0xbe32947a	-0.17439452
212	0xbc81ad7e	-0.015829798
213	0x3db6036c	0.088873714
214	0xbca0c29a	-0.019624043
215	0xbd2c3c06	-0.04204943
216	0x3c860041	0.016357543
217	0x3de4a4a7	0.111642174
218	0xbd23fd82	-0.040036686
219	0xbe51402b	-0.20434634
220	0x3ac53d01	0.0015048088
221	0x3dbcd245	0.09219793
222	0xbd98cd3f	-0.074610226
223	0x3d5b5e6b	0.05355684
224	0xbdb792c4	-0.0896354
225	0x3d73919c	0.059465036
226	0x3cb0d89e	0.021587666
227	0xbc41efbe	-0.011836944
228	0xbe1ff820	-0.15621996
229	0xbd90a08f	-0.07061874
230	0xbc149c26	-0.009070432
231	0xbd748b19	-0.059702966
232	0x3c0bd479	0.008534544
233	0x3df09eb6	0.11749022
234	0x3dc74e53	0.09731736
235	0xbd0a4256	-0.03375467
236	0xbdbff5ef	-0.0937308
237	0xbe09a318	-0.13441122
238	0x3a943b92	0.0011309257
239	0x3d2a3d1e	0.041562192
240	0x3b9b3e11	0.0047376235
241	0x3cec4bfc	0.028844826
242	0xbbe5ef2b	-0.0070170364
243	0x3c8d4a57	0.017247362
244	0x3d43bcf3	0.047787618
245	0x3d6ce062	0.057831176
246	0xbd91265b	-0.07087394
247	0x3bb738df	0.0055914964
248	0xbdb67a16	-0.08910005
249	0xbe1c18ef	-0.15243886
250	0xbdf70c98	-0.12062949
251	0xbd8d340d	-0.068946935
252	0x3d87c798	0.06629866
253	0x3d91e47f	0.0712366
254	0xbbe55af0	-0.006999366
255	0x3c501684	0.012700681

lr_model.0.bias f4 [256]
0	0xbc4895a0	-0.012242705
1	0xbdfa77e9	-0.12229902
2	0x3bc424eb	0.0059858463
3	0x3dab9d3c	0.083795995
4	0x3c4f300d	0.012645734
5	0xbdf5aa3a	-0.11995359
6	0xbdaced7d	-0.08443735
7	0xbb1ff649	-0.0024408272
8	0x3dd8eaa8	0.10591632
9	0xbd21e85b	-0.039528232
10	0xbcd060ab	-0.02543672
11	0xbd357389	-0.044299636
12	0x3d8c20a0	0.0684216
13	0x3d892ab3	0.06697597
14	0x3d84cefa	0.0648479
15	0xbda8f786	-0.08250336
16	0xbdc041fa	-0.09387584
17	0xbb714a83	-0.0036818094
18	0xbc481743	-0.012212577
19	0xbce79706	-0.028270256
20	0x3d528895	0.051399786
21	0xbd3cb205	-0.04606821
22	0x3c44f7fe	0.012022017
23	0x3d224133	0.03961296
24	0xbc85ca42	-0.016331796
25	0xbc80ac20	-0.015707076
26	0x3cb925bb	0.022601
27	0xbd8d1770	-0.06889236
28	0x3dcef05a	0.10104437
29	0xbd895dee	-0.06707369
30	0xbd5e2bf5	-0.05424114
31	0x3db5f6ab	0.08884939
32	0x3c3eeff3	0.011653888
33	0xbcc5234a	-0.024064679
34	0x3c44ac89	0.012004026
35	0xbd22d1fd	-0.03975104
36	0xbd4383ca	-0.047733106
37	0xbd166454	-0.036716774
38	0x3d7bd0e2	0.061478503
39	0xbd049003	-0.032363903
40	0xbdaaf53d	-0.08347557
41	0x3dd37e95	0.10326878
42	0x3d9d2cef	0.07674586
43	0xbdf5a3d1	-0.11994136
44	0x3da1d302	0.07901575
45	0x3ca0e1d8	0.01963894
46	0x3d5286e0	0.051398158
47	0xbd370aad	-0.044687916
48	0xbc2499c0	-0.0100464225
49	0x3cc0c226	0.023530077
50	0xbd9a33fa	-0.07529445
51	0xbcdb5fbe	-0.026779052
52	0xbdc1ce60	-0.09463191
53	0x3d5d910e	0.054093413
54	0xbd35039a	-0.044192888
55	0x3c33261c	0.010934379
56	0x3adca1b5	0.001683286
57	0xbc936840	-0.017994046
58	0x3c9eb54a	0.019373555
59	0xbbb77526	-0.005598682
60	0x3db758ed	0.08952508
61	0xbd522682	-0.051306255
62	0xbd1ae02c	-0.037811443
63	0xbd2cf447	-0.04222515
64	0xbc3ad733	-0.011403847
65	0xbd9b9ef8	-0.0759868
66	0x3d17abe5	0.037029166
67	0xbca02715	-0.019549886
68	0xbc3e6e8d	-0.011623037
69	0x3d8368eb	0.06416496
70	0x3da70949	0.08156068
71	0xbd72a03d	-0.059234846
72	0x3d8c3f50	0.068480134
73	0x3d904df5	0.07046119
74	0xbd86f6c2	-0.06590034
75	0x3c495526	0.012288367
76	0xbb770d46	-0.003769712
77	0xbd2f4b4c	-0.042796418
78	0x3d1c7c23	0.038204324
79	0x3d33f316	0.043932997
80	0x3dd27e6d	0.1027802
81	0xbd42953a	-0.047505595
82	0xbc4c03b0	-0.012452051
83	0xbd10e0cb	-0.03537063
84	0xbd831704	-0.06400874
85	0x3df447ac	0.11927733
86	0x3db5e975	0.08882419
87	0x3df02fe2	0.11727883
88	0xbb000bb2	-0.001953822
89	0xbd4a7941	-0.049432043
90	0xbc1d980e	-0.009618772
91	0x3d097999	0.03356323
92	0xbcd474f3	-0.025934672
93	0xbd03f69b	-0.032217603
94	0x3c53c94c	0.012926411
95	0xbc9353f2	-0.017984364
96	0x3d339588	0.043843776
97	0x3cbc988e	0.023021962
98	0x3b80af95	0.003927181
99	0x3d9bf1a5	0.076144494
100	0x3d823392	0.063574925
101	0x3c7eb256	0.015545448
102	0xbb242660	-0.0025047287
103	0x3da521b3	0.08063068
104	0x3d352518	0.04422483
105	0x3d182303	0.037142765
106	0xbc4a791d	-0.012357977
107	0xbd9231e9	-0.07138426
108	0xbd51a5e8	-0.05118361
109	0xbcdec30f	-0.02719262
110	0xbdd7657a	-0.10517402
111	0xbd775559	-0.06038413
112	0x3e0609aa	0.13089624
113	0x3d1cec76	0.038311444
114	0x3cd2145b	0.025644472
115	0x3cb83582	0.022486452
116	0x3df16168	0.11786157
117	0x3c99482a	0.018711168
118	0x3d7232ba	0.059130408
119	0x3db72575	0.08942691
120	0x3d9946b2	0.07484187
121	0xbc0b8096	-0.008514544
122	0xbc054c4c	-0.008135866
123	0x3d303b3e	0.043025248
124	0x3d79a4e7	0.06094828
125	0x3d85ec4c	0.06539211
126	0x3d2ae967	0.041726496
127	0xbdfde488	-0.123971045
128	0xbd231164	-0.039811507
129	0x3cbe5ea9	0.023238497
130	0x3c82551d	0.015909726
131	0xbb413506	-0.0029481067
132	0x3ae40777	0.0017397244
133	0x3de2ad55	0.11068217
134	0x3ddd2cc8	0.10799557
135	0xbd0aca8a	-0.033884563
136	0x3def66a9	0.11689503
137	0x3d092c1c	0.03348933
138	0x3d733b81	0.05938292
139	0xbd1553c9	-0.036456857
140	0xbd15f5fd	-0.036611546
141	0x3da195c0	0.07889891
142	0x3ca58041	0.020202758
143	0xbcdf3197	-0.027245326
144	0xbb2b3c2f	-0.0026128402
145	0x3ce2e48a	0.027696867
146	0xbe10d1f7	-0.14142595
147	0xbb46bd0a	-0.0030325078
148	0xbcfdae13	-0.030966794
149	0x3ce13df2	0.027495358
150	0xbd9f1564	-0.07767752
151	0x3cbe900d	0.023262048
152	0x3d3f0742	0.04663778
153	0xbde508b6	-0.11183302
154	0x3c47e944	0.012201611
155	0x3dd614e0	0.104532
156	0xbde9634f	-0.11395895
157	0x3e048187	0.12940036
158	0x3dd7da62	0.105397
159	0x3d6b9f44	0.057524934
160	0xbdab7f50	-0.08373892
161	0x3d04f2d9	0.03245816
162	0xbae85dee	-0.0017728189
163	0xbd0c5f0c	-0.03427033
164	0x3d22bbb1	0.039729778
165	0x3d04eecc	0.032454297
166	0xbdaf624e	-0.08563672
167	0x3df2b82a	0.11851533
168	0xbd6fea03	-0.05857278
169	0x3c8080e3	0.015686458
170	0x3e400ef9	0.18755712
171	0x3dccf3a7	0.100074105
172	0xbd104da4	-0.035230294
173	0x3cf41e03	0.029799467
174	0xbc6dc70e	-0.01451279
175	0xbd0faf12	-0.03507907
176	0xbde6b3c5	-0.11264757
177	0xbdf95a99	-0.12175483
178	0xbc96f5d0	-0.01842776
179	0xbc6ef67b	-0.014585133
180	0xbc90bdf2	-0.017668698
181	0xbd1c19ac	-0.03811042
182	0x3d6458dc	0.055748805
183	0x3d57938d	0.05263095
184	0x3d3b4a13	0.04572494
185	0x3b7c03df	0.0038454456
186	0x39e68361	0.00043966903
187	0x3d3cb900	0.046074867
188	0xbba1fca9	-0.0049434495
189	0x3c1422b5	0.009041478
190	0x3c98a9c9	0.018635647
191	0x3d333f7a	0.043761708
192	0xbe15b6f5	-0.14620574
193	0xbdb10170	-0.08642852
194	0x3b525dd3	0.003209938
195	0x3bbcdc7e	0.0057635894
196	0xbc44639d	-0.01198664
197	0x3dd749b4	0.10512105
198	0xbc9ab77c	-0.01888632
199	0x3d692a56	0.05692514
200	0x3d857c7f	0.06517886
201	0x3d2b508d	0.041824866
202	0xbd99491d	-0.074846484
203	0xbc20be11	-0.00981094
204	0xbd9e307e	-0.07724093
205	0x3c8eae1e	0.01741701
206	0x3c087ca6	0.0083305
207	0x3dcf0b66	0.10109596
208	0x3d92ed48	0.07174164
209	0x3cd959f3	0.026532149
210	0x3d6a27d0	0.057166874
211	0x3d10af44	0.035323396
212	0x3caba722	0.020953719
213	0x3b99b9df	0.004691347
214	0x3caf417f	0.021393536
215	0xbd4ee71a	-0.050513364
216	0x3c6ef75a	0.01458534
217	0xbcf65ace	-0.030072596
218	0xbc3e99cc	-0.011633348
219	0x3e482a04	0.19547278
220	0xbab678d8	-0.0013921512
221	0x3db82d92	0.08993067
222	0x3c40e866	0.011774158
223	0x3da98211	0.08276761
224	0x3cf39722	0.029735152
225	0xbc0eecfb	-0.008723493
226	0xbdcd42c0	-0.10022497
227	0x3ca40c94	0.020025529
228	0x3db4387c	0.08799836
229	0x3c326d93	0.010890382
230	0x3bd3489b	0.006447864
231	0x3cecf6c7	0.028926266
232	0x3ba1297f	0.004918277
233	0xbcedb5e4	-0.029017396
234	0x3d3351c0	0.043779135
235	0x3e042ee4	0.12908512
236	0x39ddb6de	0.00042288651
237	0xbd09a359	-0.033603046
238	0x3d096d29	0.03355137
239	0x3d6752a2	0.05647529
240	0xbd9db79c	-0.07701036
241	0xbd605831	-0.054771606
242	0xbc73c643	-0.014878812
243	0x3d41059a	0.047124483
244	0x3d55d762	0.05220736
245	0x3d9297ad	0.07157836
246	0xbc90f9de	-0.017697271
247	0xbd8c0c90	-0.068383336
248	0xbd1aa5b1	-0.037755672
249	0xbdb2a777	-0.08723348
250	0xbda82e82	-0.08211996
251	0x3dcbae9c	0.099454135
252	0x3c74b4a1	0.014935643
253	0x3e81b15f	0.25330636
254	0xbb829099	-0.0039845225
255	0x3de98f86	0.11404328

lr_model.3.weight f4 [128, 256]
0	0x3d89915e	0.0671718
1	0xbd1818fd	-0.037133206
2	0x3dbc473c	0.091932744
3	0x3dbf00d3	0.09326329
4	0x3d3a01c6	0.045411848
5	0xbdde5685	-0.10856346
6	0xbcbd9fea	-0.023147542
7	0xbd76e69c	-0.06027852
8	0x3d679d7d	0.056546677
9	0xbcd0326c	-0.025414668
10	0xbd87cbb9	-0.06630654
11	0xbe115b8b	-0.14195077
12	0x3c1af77c	0.009458419
13	0x3d37ea26	0.044901036
14	0x3d8f8283	0.07007315
15	0xbc966982	-0.018360857
16	0xbd87ad72	-0.06624879
17	0x3d9fcab8	0.078023374
18	0xbdd8ca26	-0.10585432
19	0xbc4c199b	-0.012457277
20	0x3c5a2e9f	0.013316779
21	0x3d521cd5	0.051297028
22	0x3cc97f70	0.0245969
23	0xbd797819	-0.06090555
24	0x3e12d3cb	0.14338605
25	0x3cf16877	0.029468758
26	0xbe01d06c	-0.12677163
27	0xbd1de092	-0.038544245
28	0x3ca0acff	0.019613741
29	0xbda64d6f	-0.08120238
30	0xbd78a7cd	-0.060706902
31	0x3d339995	0.04384764
32	0x3d5cc480	0.053898335
33	0x3db0bfac	0.086303085
34	0xbd25b396	-0.04045447
35	0x3ba9f0b6	0.0051861657
36	0x3d09b034	0.033615306
37	0xbc156762	-0.009118887
38	0xbc3192e3	-0.010838243
39	0xbb61df80	-0.0034465492
40	0xbcaee4ae	-0.021349277
41	0x3e633cfa	0.2219123
42	0x3e175217	0.14777409
43	0x3d67903f	0.05653405
44	0xbccace18	-0.024756476
45	0x3d2a92c2	0.041643865
46	0x3e23203b	0.15930264
47	0xbe4224f5	-0.1895941
48	0x3d4a67c8	0.04941538
49	0x3daaa482	0.083321586
50	0xb9863587	-0.00025598353
51	0x3c9f4030	0.019439787
52	0x3e09ff5c	0.13476318
53	0x3dc94eb3	0.09829464
54	0x3b3c0f74	0.0028695734
55	0xbe47e7e7	-0.19522057
56	0xbcc626b5	-0.024188379
57	0xbc4fbaf4	-0.01267885
58	0x3d1accc6	0.037792943
59	0x3d2f420f	0.042787608
60	0x3eb88a9f	0.3604326
61	0x3bd1ad4d	0.006398833
62	0xbdd9b8db	-0.106309615
63	0x3e7a9fdc	0.24475044
64	0x3e002463	0.1251388
65	0x3d1c83e7	0.03821173
66	0x3cef267e	0.02919316
67	0xbc8f06a3	-0.01745922
68	0xbdbafbbd	-0.091300465
69	0x3d11b220	0.035570264
70	0xbdaa5390	-0.083167195
71	0xbce7faf8	-0.028317913
72	0xbcf32a3b	-0.029683223
73	0xbcbc45e5	-0.022982547
74	0xbdb1b4c2	-0.08677055
75	0xbdc1f88f	-0.09471237
76	0xbd76406c	-0.06012003
77	0xbe1625b0	-0.14662814
78	0x3dd05369	0.10172159
79	0xbbd28703	-0.006424786
80	0x3db38edd	0.087674834
81	0x3c90e7fe	0.017688747
82	0x3e07df0e	0.13268682
83	0xbcb14e42	-0.021643762
84	0xbe0f8f59	-0.14019527
85	0x3aff454d	0.0019475609
86	0xbc886c19	-0.016653107
87	0x3ad6e9a5	0.0016396536
88	0xbd92c3ef	-0.071662776
89	0x3c84e186	0.01622082
90	0x3b0d1b6a	0.0021531233
91	0xbc744c36	-0.014910748
92	0x3dd374fa	0.10325046
93	0xbd6acb1a	-0.0573226
94	0xbe1877f7	-0.14889513
95	0xbdabbd3d	-0.08385704
96	0x3e8f80e2	0.28028017
97	0x3d4d9bfd	0.05019759
98	0xbdbae94a	-0.091265276
99	0x3d355d8e	0.044278674
100	0x3e114578	0.14186656
101	0xbafb4e48	-0.001917311
102	0xbd62a600	-0.05533409
103	0x3dbf800c	0.09350595
104	0xbd6fad87	-0.058515098
105	0x3d9c085d	0.07618783
106	0xbd95381d	-0.072860934
107	0xbdbf8f2d	-0.093534805
108	0xbd7e8d05	-0.062146205
109	0xbd7de809	-0.061988864
110	0x3dfe6483	0.12421515
111	0xbc9ce972	-0.019154284
112	0xbc0aef56	-0.008479914
113	0x3e08c3ef	0.13355993
114	0x3c1a7c70	0.009429082
115	0xbd5f1484	-0.054462925
116	0x3e255ee4	0.16149479
117	0x3e078a53	0.1323636
118	0xbd47f432	-0.048816867
119	0x3da0d536	0.07853167
120	0x3ddf84b1	0.10913981
121	0xbb940b25	-0.00451793
122	0xbd90a715	-0.07063118
123	0x3c9be709	0.019031065
124	0x3bd0c8d4	0.006371597
125	0xbbef100f	-0.0072956155
126	0x3c706a6d	0.014673811
127	0xbcfcd5ab	-0.030863604
128	0xbb1e8aac	-0.0024191542
129	0x3d709a7e	0.058741085
130	0x3e6c63c6	0.23084936
131	0xbe3c0005	-0.18359382
132	0xbd32b04e	-0.04362517
133	0x3e0ee6cb	0.13955228
134	0x3db9d81a	0.09074421
135	0x3d87fa2f	0.066395156
136	0xbd86df6b	-0.06585582
137	0x3ddcdb0f	0.107839696
138	0x3e181482	0.14851573
139	0x3d4b8ee2	0.04969681
140	0xbdaad43c	-0.08341262
141	0x3dd1f7a3	0.10252311
142	0x3d475029	0.04866043
143	0x3d929c55	0.07158724
144	0x3da8aefb	0.082365
145	0x3d9156d1	0.07096637
146	0xbce93eb5	-0.028472284
147	0xbde5403c	-0.11193892
148	0xbd742e27	-0.059614327
149	0xbd03618b	-0.032075446
150	0xbd81d2ea	-0.06339057
151	0x3e73a375	0.23792823
152	0xbd6139b6	-0.054986678
153	0xbded9655	-0.11600939
154	0xbcdeb2a1	-0.027184786
155	0x3e38b3e3	0.18037371
156	0xbeba78eb	-0.36420378
157	0x3da3cbc0	0.079978466
158	0xbb504529	-0.0031779504
159	0xbd8951d6	-0.06705062
160	0xbbe8b96a	-0.007102181
161	0x3dc3070a	0.09522827
162	0xbdebcea2	-0.115140215
163	0x3c0a72e9	0.008450248
164	0x3e686541	0.22694875
165	0x3e20a8c8	0.15689385
166	0xbeaa1472	-0.33218724
167	0x3db989d9	0.090594955
168	0xbbbe1107	-0.0058003697
169	0xbbd2c6ad	-0.0064323754
170	0x3daca1b7	0.08429282
171	0x3d1ea914	0.038735464
172	0x3c25f2d6	0.010128697
173	0xbe90ff54	-0.283198
174	0x3c00a073	0.007850754
175	0xbe73eb09	-0.23820128
176	0x3ccfb4ab	0.025354704
177	0xbe2b958f	-0.16756271
178	0x3b81e555	0.003964106
179	0x3db8e4c1	0.09028006
180	0xbc2e69e1	-0.010645361
181	0xbd070584	-0.032964244
182	0xbdd773ae	-0.10520111
183	0x3e1c2ddb	0.15251867
184	0x3c116be3	0.00887582
185	0x3d8f2031	0.06988562
186	0x3c977f7f	0.018493412
187	0xbd8635f1	-0.06553257
188	0x3d6c0477	0.057621446
189	0xbbde4891	-0.006783553
190	0x3cb30787	0.021854175
191	0xbd23c420	-0.03998196
192	0xbe0f6a2e	-0.14005348
193	0xbd5496e4	-0.051901713
194	0x3a59c3a2	0.00083070446
195	0xbd3796a7	-0.044821408
196	0xbd4c56fe	-0.04988765
197	0xbdc13f63	-0.09435918
198	0x3d6ae4fd	0.057347286
199	0xbd3c5187	-0.045976188
200	0x3e096bf8	0.13420093
201	0x381daef8	3.759467e-05
202	0xbe1ecdbb	-0.15508167
203	0x3d07cf77	0.03315684
204	0xbe119b95	-0.14219506
205	0xbc1e53f0	-0.009663567
206	0x3cd5e2cf	0.026109127
207	0x3d98ec09	0.07466895
208	0x3d99c07b	0.07507416
209	0x3c6f5d10	0.01460959
210	0xbe0254c4	-0.12727648
211	0x3d2b254b	0.041783612
212	0xbdd39514	-0.10331169
213	0x3c8f1a73	0.017468667
214	0xbd056834	-0.03257008
215	0xbd15883f	-0.036506888
216	0x3d45686d	0.04819529
217	0xbc2a9073	-0.010410416
218	0xbdcb18ff	-0.09916877
219	0x3e805b99	0.25069883
220	0x3e0df7b3	0.13864021
221	0x3dd0e347	0.101996
222	0x3d4bdcd1	0.049771134
223	0xbd9773e4	-0.07395151
224	0x3b287de7	0.002570981
225	0x3ceb731f	0.028741417
226	0xbe09f127	-0.13470899
227	0xbe3a5f74	-0.18200475
228	0xbd6a2362	-0.05716265
229	0xbdce87a5	-0.10084466
230	0x3c267f88	0.010162242
231	0x3d94bc7b	0.07262512
232	0xbcc00802	-0.023441318
233	0x3d10376a	0.035209097
234	0x3d6525b3	0.055944156
235	0x3ddf820d	0.10913477
236	0x3d87d26f	0.06631934
237	0x3d7fe83a	0.062477328
238	0xbe1df078	-0.15423763
239	0x3d2e4b14	0.04255207
240	0xbce74ba6	-0.028234314
241	0xbdc702e3	-0.097173475
242	0x3d89f92d	0.0673698
243	0xbdb80ef5	-0.08987228
244	0x3d8b9c81	0.0681696
245	0xbcbadc9a	-0.02281027
246	0xbdd69748	-0.10478073
247	0xbdc3f8f3	-0.09568968
248	0xbd756e8e	-0.059919886
249	0xbe0444e7	-0.12916909
250	0x3e0b7db7	0.13622175
251	0xbd098960	-0.033578277
252	0x3e190eea	0.14947096
253	0x3db0426a	0.086064175
254	0xbd60a665	-0.054846186
255	0xbb0c43c4	-0.0021402696

lr_model.3.bias f4 [128]
0	0x3dab3be7	0.08361035
1	0x3da769f5	0.081745066
2	0x3e0597de	0.13046214
3	0x3d9c886a	0.076432064
4	0x3e493239	0.19648065
5	0xbdb6bdde	-0.08922933
6	0xbc57abcb	-0.013163517
7	0x3da829e1	0.08211113
8	0x3d924ddd	0.071437575
9	0x3e35b48c	0.17744654
10	0x3ce2f6e4	0.027705617
11	0xbb921771	-0.004458361
12	0x3d8a7411	0.06760419
13	0x3dfae3e3	0.12250497
14	0x3da55de0	0.08074546
15	0x3dc9f6dc	0.09861538
16	0xbd142b55	-0.036174137
17	0x3e2cfd8d	0.16893597
18	0x3db25458	0.087074935
19	0xbe1c0f6f	-0.15240262
20	0xbde555a1	-0.11197973
21	0x3db91eaf	0.090390556
22	0x3cc0ca45	0.02353395
23	0x3cc1c28e	0.023652341
24	0x3dbf3bff	0.09337615
25	0x3d6a812b	0.05725209
26	0xbd879e77	-0.06622022
27	0x3e2aef9b	0.16692965
28	0xbc63a30a	-0.013893852
29	0x3e3f927f	0.18708228
30	0x3d92994b	0.071581446
31	0x3c13fe31	0.009032772
32	0xbd3d28d9	-0.046181533
33	0x3c855ddd	0.016280109
34	0xbd8c2403	-0.06842806
35	0x3d0bb95f	0.03411233
36	0x3c8bcd55	0.017065683
37	0xbc3d48bc	-0.011552986
38	0x3e0c5a59	0.1370634
39	0x3dd419f7	0.10356515
40	0xbdece811	-0.11567701
41	0x3cfe7e4f	0.031066088
42	0x3e381027	0.17974912
43	0x3c15c69b	0.0091415895
44	0x3d48a345	0.04898383
45	0x3d816a06	0.063190505
46	0x3e1fae60	0.15593863
47	0x3d34c297	0.044130888
48	0xbdce6578	-0.100779474
49	0x3e38091c	0.17972225
50	0xba684e93	-0.0008861806
51	0x3d6166ee	0.055029802
52	0x3dd52eb0	0.104092956
53	0x3d24ea79	0.040262673
54	0x3d7af63f	0.061269995
55	0xbc21a757	-0.009866557
56	0x3cc811f6	0.024422627
57	0xbd844ceb	-0.064599834
58	0x3e457469	0.19282688
59	0xbc8d0df9	-0.017218577
60	0x3b9651f0	0.0045874044
61	0x3c69e773	0.014276373
62	0x3e177e48	0.14794266
63	0x3e4cf8b8	0.20016754
64	0x3d912ede	0.07089017
65	0xbdd29ebc	-0.102841824
66	0x3df6ae35	0.12044946
67	0x3e2174f0	0.15767264
68	0x3e300377	0.17188822
69	0x3c69b98a	0.014265427
70	0x3e809e62	0.25120836
71	0x3e4768ec	0.19473618
72	0x3e40148c	0.18757838
73	0xbc22cdcb	-0.00993676
74	0x3da7a625	0.081859864
75	0x3db33cd8	0.087518394
76	0x3d127e46	0.035764955
77	0x3e05ed35	0.13078769
78	0x3da2ceb4	0.07949582
79	0x3e099f30	0.13439631
80	0x3e11d77e	0.1424236
81	0xbc2adebe	-0.010429082
82	0x3d0797f1	0.033103887
83	0xbc4ac5c5	-0.0123762535
84	0x3caa9104	0.020821102
85	0x3dc24fad	0.09487853
86	0xbe0263b3	-0.12733345
87	0x3dbaaa66	0.09114532
88	0x3e3c7026	0.18402156
89	0x3e19d8dd	0.15024133
90	0xbe0b223b	-0.13587277
91	0xbca19be6	-0.019727658
92	0xbd540027	-0.051757958
93	0x3e58653e	0.21132371
94	0x3cb8d85e	0.02256411
95	0xbc37b459	-0.011212432
96	0x3d5786f4	0.052618936
97	0x3d862b9b	0.06551286
98	0x3c87f912	0.016598258
99	0x3d95b8df	0.07310652
100	0x3bb76d8c	0.005597776
101	0xbd4744aa	-0.048649468
102	0xbd7d719d	-0.06187593
103	0x3d870b6a	0.06593974
104	0x3d5616a9	0.052267704
105	0xbd9f5a77	-0.07780927
106	0x3dfb747c	0.12278077
107	0x3cf1b549	0.029505389
108	0x3dc6ef33	0.097135924
109	0x3e084de5	0.13310964
110	0x3dd4990c	0.10380754
111	0xbd759da1	-0.05996478
112	0xbe0fa9de	-0.14029643
113	0xbc9fca7e	-0.019505735
114	0x3df3a99b	0.11897584
115	0x3d0e791f	0.03478348
116	0x3e869a4b	0.2628959
117	0x3dba95cf	0.09110605
118	0x3d2726bd	0.040808428
119	0x3d813dca	0.063106135
120	0xbca58bb2	-0.020208213
121	0xbd48dfeb	-0.04904167
122	0x3e04e8c3	0.12979417
123	0xbdd4ed6d	-0.10396848
124	0xbb7998c5	-0.0038085443
125	0x3d95e70e	0.07319461
126	0xbde41c7e	-0.11138247
127	0x3d9ae5db	0.07563373

lr_model.6.weight f4 [10, 128]
0	0xbe094980	-0.13406944
1	0xbe05ec1a	-0.13078347
2	0x3e0d9659	0.13826884
3	0xbe7b4549	-0.24538149
4	0xbe21f3eb	-0.15815704
5	0x3dd5b4c0	0.10434866
6	0xbe8d38a1	-0.27582267
7	0x3d853317	0.06503885
8	0x3e0390f4	0.12848264
9	0xbe895250	-0.26820612
10	0xbd1516fb	-0.03639887
11	0xbe878b2e	-0.26473373
12	0xbdc312e2	-0.09525086
13	0x3d89fbb9	0.067374654
14	0xbd270367	-0.04077473
15	0xbda31beb	-0.07964309
16	0x3d1096e6	0.035300158
17	0x3db8d888	0.09025675
18	0xbd634a2e	-0.055490665
19	0xbd7eedb1	-0.0622384
20	0xbe4d2d1f	-0.20036744
21	0x3e1473f7	0.14497362
22	0xbe3cfe54	-0.18456393
23	0xbe654774	-0.22390538
24	0x3c9c0f3c	0.019050233
25	0xbe2a48b4	-0.16629297
26	0xbcd9d512	-0.026590858
27	0x3dadf15c	0.08493301
28	0x3d46a1d0	0.04849416
29	0xbea2cb68	-0.31795812
30	0x3e142c89	0.14470114
31	0x3ca10a32	0.019658182
32	0xbe75d4d9	-0.24006976
33	0xbeb02315	-0.34401765
34	0x3e3ed0bc	0.18634313
35	0xbe6cbd30	-0.23119044
36	0x3da7206d	0.081604816
37	0xbd0a1598	-0.033712
38	0xbdea8fb9	-0.11453194
39	0xbe53b819	-0.20675696
40	0xbcfb4838	-0.030674085
41	0x3e3100ff	0.17285536
42	0x3dedab1d	0.11604903
43	0xbe9c9d33	-0.30588683
44	0xbe1baf9c	-0.15203708
45	0x3dc9e205	0.09857563
46	0xbc3a4777	-0.011369578
47	0xbe39e8f3	-0.1815527
48	0x3c1d3f9f	0.009597688
49	0xbe643b0c	-0.2228815
50	0xbe04396c	-0.1291253
51	0x3da495df	0.08036398
52	0x3d833927	0.06407385
53	0x3e1d80f5	0.15381224
54	0x3e6c292b	0.2306258
55	0xbea3572d	-0.31902447
56	0xbde253c0	-0.1105113
57	0xbd156655	-0.036474545
58	0xbe36d477	-0.17854486
59	0x3e0970d9	0.13421954
60	0x3d47e080	0.048798084
61	0xbc20778b	-0.009794126
62	0x3c7af315	0.015316744
63	0x3e249371	0.1607187
64	0x3dc47819	0.09593219
65	0xbe241d05	-0.16026695
66	0x3debb071	0.11508263
67	0xbe108a8a	-0.14115348
68	0xbdc60804	-0.096694976
69	0x3e2dc3d8	0.1696924
70	0xbdf2d9f4	-0.118579775
71	0xbd70a00a	-0.058746375
72	0xbd48ad0c	-0.048993155
73	0xbe3cedf7	-0.18450151
74	0x3e03d9d9	0.12876071
75	0x3d674c02	0.05646897
76	0x3d931523	0.07181766
77	0xbd54733c	-0.05186771
78	0x3e0dc9ba	0.13846484
79	0x3e000df3	0.12505321
80	0xbead39d0	-0.3383317
81	0x3d474c4c	0.048656747
82	0xbe0937ca	-0.13400188
83	0xbdbf1b5c	-0.0933139
84	0x3e194ab2	0.149699
85	0xbe646e75	-0.22307761
86	0xbdcabd10	-0.09899342
87	0x3e23cc60	0.15995932
88	0x3daae423	0.08344295
89	0xbc5c10a9	-0.0134317065
90	0xbe4a044e	-0.19728205
91	0xbe795be9	-0.24351467
92	0x3e48ea85	0.19620712
93	0x3d6146ea	0.05499927
94	0xbe934d8a	-0.28770095
95	0xbeb7484d	-0.3579735
96	0xbe82453c	-0.25443447
97	0xbeb3b0ce	-0.3509583
98	0xbc273868	-0.010206319
99	0x3d6afec0	0.057371855
100	0xbe157c5d	-0.14598222
101	0xbe32bffc	-0.17456049
102	0x3d336ad2	0.043803044
103	0xbc5974cd	-0.013272476
104	0xbdfdf5f2	-0.12400426
105	0xbe1a554f	-0.15071605
106	0x3df6d931	0.12053145
107	0x3e3d98db	0.18515341
108	0xbdff408b	-0.124634825
109	0x3de85715	0.113447346
110	0xbcd12651	-0.025530966
111	0x3e364313	0.17799024
112	0xbe11b80f	-0.14230369
113	0x3c6cd31f	0.014454632
114	0x3deef7ee	0.116683826
115	0x3de8a381	0.11359311
116	0xbe1f6ae0	-0.15568113
117	0x3d0f1b6f	0.034938272
118	0xbec5f860	-0.38666058
119	0x3df372b6	0.11887114
120	0xbe84f553	-0.25968418
121	0x3e496cac	0.19670361
122	0xbdaed530	-0.08536756
123	0x3e8b53cf	0.27212378
124	0x3e4d5dc3	0.20055299
125	0xbd92715a	-0.07150526
126	0xbe56c07b	-0.20971863
127	0x3d511af3	0.05105109
128	0x3e1bc3fb	0.1521148
129	0xbe33cafb	-0.175579
130	0xbea36f83	-0.31921014
131	0x3d46c987	0.048532035
132	0xbd801511	-0.06254018
133	0x3d952714	0.07282844
134	0x3de9c3fc	0.11414334
135	0xbcd0f37e	-0.025506731
136	0xbe6a9fee	-0.22912571
137	0xbd27efb3	-0.04100008
138	0xbe685be4	-0.22691303
139	0x3d98c74e	0.07459889
140	0x3cef9315	0.029244939
141	0xbe7cf4f8	-0.24702823
142	0x3e46c08a	0.19409385
143	0x3dc85675	0.09782115
144	0x3d9913a2	0.07474448
145	0xbe797651	-0.2436154
146	0xbe91e3d5	-0.28494135
147	0x3def244f	0.11676847
148	0x3de3d1ab	0.11123975
149	0xbdebec55	-0.11519686
150	0x3dc58861	0.09645153
151	0x3d8a7e5d	0.06762383
152	0x3e13032e	0.14356682
153	0xbe875982	-0.26435477
154	0x3e6a7831	0.22897412
155	0xbe66174b	-0.22469823
156	0xbd92c128	-0.07165748
157	0xbdafad77	-0.08578008
158	0xbe79d955	-0.24399312
159	0xbda5ba37	-0.08092158
160	0x3e2577e9	0.16159023
161	0xbdb442f2	-0.08801831
162	0x3e1d47b6	0.15359387
163	0xbe29b711	-0.1657374
164	0xbd839e71	-0.06426705
165	0xbdace1f0	-0.08441532
166	0xbe2cb64f	-0.1686642
167	0x3db3cd44	0.08779386
168	0x3e5e12a8	0.21686804
169	0xbd18d6d4	-0.03731425
170	0xbcfebfb6	-0.031097274
171	0xbdd64374	-0.104620844
172	0x3dd5f8b3	0.10447826
173	0x3e3d747c	0.18501467
174	0xbec20065	-0.37890926
175	0xbe6ccc35	-0.23124774
176	0xbcdc0b29	-0.02686079
177	0x3da6a6c5	0.081372775
178	0x3d836709	0.06416137
179	0x3d3f7cab	0.046749752
180	0xbeadcce8	-0.33945394
181	0xbe5bbd82	-0.2145901
182	0xbccc426e	-0.02493402
183	0x3e42c2aa	0.19019571
184	0xbec2f1d9	-0.3807514
185	0x3a8ae2e8	0.0010596188
186	0xbb8d46bd	-0.004311411
187	0x3e9d7c35	0.30758825
188	0xbcc7383e	-0.02431881
189	0xbd5a7075	-0.053329904
190	0x3cba8e11	0.02277282
191	0x3c70e3ed	0.014702779
192	0xbe3d7103	-0.18500142
193	0x3e8f25e6	0.27958602
194	0x3d5e1acf	0.054224785
195	0xbdff7985	-0.1247435
196	0xbe23ec5c	-0.16008133
197	0x3d6ee8a0	0.058327317
198	0xbe66be8c	-0.22533625
199	0x3d9f59c7	0.077807955
200	0x3d441781	0.047873978
201	0xbd054234	-0.03253384
202	0xbe74f40b	-0.2392122
203	0xbea214e9	-0.31656578
204	0xbe1144ca	-0.14186397
205	0xbe8bfe34	-0.2734238
206	0x3d811f17	0.06304758
207	0xbe78eb98	-0.24308622
208	0xbe98a26c	-0.29811418
209	0xbe808279	-0.25099543
210	0x3d603e88	0.054747134
211	0xbe6e6389	-0.23280157
212	0xbe775495	-0.24153359
213	0x3da8cfe5	0.08242778
214	0xbd80831f	-0.06275009
215	0x3b977a59	0.0046227393
216	0xbe627544	-0.22115046
217	0xbdaf68ec	-0.08564934
218	0x3e51f245	0.20502575
219	0x3e571a97	0.21006237
220	0x3e5a8099	0.21338119
221	0xbe922ca8	-0.28549695
222	0xbcd07486	-0.025446188
223	0xbe251efe	-0.16125104
224	0x3d8cc0d6	0.06872718
225	0x3e0ea502	0.13930133
226	0x3dc7b9cf	0.09752237
227	0x3c5c5133	0.013447094
228	0x3e46cc4e	0.19413874
229	0x3d5e2169	0.05423108
230	0xbc6a38a0	-0.014295727
231	0xbd200f71	-0.039077226
232	0x3e4ca6e2	0.19985536
233	0xbe252415	-0.16127045
234	0x3d2293a3	0.03969158
235	0x3c888c35	0.016668418
236	0xbeb2c8cf	-0.3491883
237	0xbe3ed93d	-0.18637557
238	0xbcd1d5a2	-0.025614563
239	0x3e25c723	0.16189246
240	0x3dd990b7	0.10623305
241	0xbe7e22a2	-0.24817899
242	0xbe844e9d	-0.25841227
243	0xbd99e956	-0.075152084
244	0x3cd894e7	0.02643819
245	0xbeb44229	-0.35206726
246	0xbdd0081e	-0.10157798
247	0xbde86b56	-0.11348598
248	0xbc503587	-0.012708074
249	0xbe107289	-0.14106192
250	0x3e091f68	0.13390887
251	0x3e63ffae	0.22265503
252	0xbd74a121	-0.059723977
253	0xbe35d087	-0.17755328
254	0xbcfbb330	-0.030725092
255	0x3e83985a	0.25702173

lr_model.6.bias f4 [10]
0	0xbd94cc7c	-0.07265565
1	0xbddc97a0	-0.10771108
2	0x3bc65d08	0.0060535707
3	0xbd9a0106	-0.075197265
4	0xbb2f2080	-0.0026722252
5	0xbd8b6445	-0.06806234
6	0xbdfac644	-0.122448474
7	0xbdaeedde	-0.08541463
8	0x3e627433	0.22114639
9	0x3c980bc9	0.018560307
