backend/mnist/torchModels/trash_models/lr.pth (torch, 943321 bytes, 6 tensors)

lr_model.0.weight f4 [256, 784]
-0.056026638 -0.0926641 -0.085285895 -0.058618996 -0.07205295 -0.08931949 -0.0714283 -0.11224182
-0.1063215 -0.12434061 -0.049866576 -0.027329143 -0.014961389 0.016589537 -0.029993396 0.0034020215
-0.029132782 -0.0004980381 0.026167627 -0.017886968 -0.012725875 -0.050004914 -0.06217362 -0.06686586
-0.06423909 -0.09897816 -0.048616875 -0.057338323 -0.10044558 -0.08894348 -0.05655946 -0.12261574
-0.058416463 -0.11430656 -0.09749677 -0.09388768 -0.07019356 -0.098882794 -0.07092976 -0.07852488
-0.11583706 -0.11156464 -0.027428899 0.058243096 -0.006283272 -0.016728988 -0.07483007 -0.007339261
-0.05918315 -0.033968784 -0.0067757196 -0.074273795 -0.10017711 -0.075651646 -0.076153114 -0.099987514
-0.12328432 -0.094700575 -0.08374569 -0.120784335 -0.09140363 -0.090312034 -0.061557315 0.027409693
-0.009442326 -0.045192737 -0.071408264 -0.0688951 -0.056859348 -0.07073692 -0.02191501 -0.0010513259
0.015481815 -0.023274425 -0.03768958 0.007695995 0.007436 0.033266213 0.008763631 -0.06101104
-0.05424063 -0.10308967 -0.051855665 -0.068153866 -0.12943453 -0.06371079 -0.11255969 -0.12602681
-0.07920336 -0.068714105 -0.028800698 -0.034856033 -0.041543417 -0.056039944 -0.1026434 -0.10285779
-0.028468974 -0.06735388 -0.0563202 -0.0054910574 0.017598607 0.020448413 0.011487168 0.02644503
-0.008181288 0.016174814 0.043372814 0.004855756 -0.011064236 -0.044971354 -0.040886696 -0.09196407
-0.10038828 -0.12753452 -0.092999056 -0.114359036 -0.10874939 -0.07398659 -0.072938204 -0.014423363
-0.019120751 -0.009338349 -0.050915282 -0.08964593 -0.10766413 -0.072056465 -0.054373425 0.0104493005
0.08703826 0.14394578 0.10209311 0.1067045 0.061533947 0.052081708 0.06076841 0.08064723
0.0050025764 -0.015294405 -0.017874151 -0.076588996 -0.067569494 -0.12925571 -0.13188037 -0.055760365
-0.060570933 -0.033680283 -0.030382624 -0.01707874 0.011341255 0.008836039 -0.077790014 -0.09565422
-0.09599749 -0.10023516 -0.08323346 0.026283534 0.08244339 0.108308986 0.08801269 0.059280537
0.13770296 0.08413587 0.08487438 0.037010185 0.04861088 -0.00361457 -0.007459929 -0.02286585
-0.11282624 -0.08467823 -0.066545345 -0.085001476 -0.0812045 -0.01579233 0.02221121 -0.02240048
0.027846329 -0.08714787 -0.081253186 -0.12509304 -0.10193622 -0.06092527 -0.069690205 0.008334884
0.07672777 0.02021929 0.031233199 0.11798415 0.13929935 0.10735969 0.11068722 0.05043322
0.07597654 0.040661562 0.0013329813 -0.046722785 -0.09057445 -0.104518235 -0.0739271 -0.09041016
-0.016815487 -0.004583306 0.031837873 -0.026281636 -0.043600947 -0.045905307 -0.065354146 -0.08046423
-0.098387025 0.016386664 -0.038712148 0.05285802 0.102348715 0.024649387 0.04546876 0.1244354
0.18103749 0.14490211 0.08289985 0.07726184 0.044812843 -0.009044782 0.010821094 -0.015075418
-0.09625888 -0.046925604 -0.07399403 -0.042880293 -0.08083314 -0.012479874 -0.009252337 -0.12506476
-0.10165377 -0.107981674 -0.00127991 -0.017786417 -0.07381738 -0.009232343 -0.08108858 -0.06909553
-0.095331594 -0.028713994 0.07050568 0.12262608 0.17557009 0.19591206 0.15355425 0.09833881
0.06912391 0.023955688 0.03108614 -0.04038365 -0.07800004 -0.07931142 -0.043340597 -0.08815144
00000000: 307c 65bd adc6 bdbd 5faa aebd 791a 70bd
00000010: 7f90 93bd 23ed b6bd 0049 92bd 0adf e5bd
00000020: 16bf d9bd 4aa6 febd e540 4cbd 5ee1 dfbc
00000030: 9d20 75bc c8e6 873c b6b4 f5bc 73f4 5e3b
00000040: dfa7 eebc c58e 02ba 7e5d d63c b187 92bc
00000050: 3080 50bc f4d1 4cbd c4a9 7ebd f8f0 88bd
00000060: c98f 83bd 10b5 cabd 7d22 47bd 97db 6abd
00000070: 6ab6 cdbd 0028 b6bd e4aa 67bd f61d fbbd
00000080: 1a46 6fbd 8f19 eabd 63ac c7bd 2f48 c0bd
00000090: a4c1 8fbd 1083 cabd 9f43 91bd a7d1 a0bd
000000a0: fb3b edbd 017c e4bd 92b2 e0bc 5090 6e3d
000000b0: e8e3 cdbb 3b0b 89bc 8240 99bd 2f7e f0bb
000000c0: 086a 72bd da22 0bbd db06 debb dc1c 98bd
000000d0: a829 cdbd 40ef 9abd 2af6 9bbd 41c6 ccbd
000000e0: 7d7c fcbd 60f2 c1bd dc82 abbd c75d f7bd
000000f0: d431 bbbd 84f5 b8bd 8623 7cbd 4b8a e03c
00000100: fcb3 1abc 051c 39bd 7f3e 92bd e018 8dbd
00000110: 59e5 68bd 85de 90bd 1b87 b3bc a5cc 89ba
00000120: 70a7 7d3c 02aa bebc 6460 1abd af2e fc3b
00000130: b0a9 f33b 2742 083d 5595 0f3c b6e6 79bd
00000140: 6c2b 5ebd ad20 d3bd 9b66 54bd 4194 8bbd
00000150: 7c8a 04be cd7a 82bd b285 e6bd 2c0d 01be
00000160: 5f35 a2bd fbb9 8cbd 71ef ebbc 33c5 0ebd
00000170: 6e29 2abd 248a 65bd b436 d2bd 1ba7 d2bd
00000180: c437 e9bc d5f0 89bd 03b0 66bd 54ee b3bb
00000190: f42a 903c 6e83 a73c ad34 3c3c 3fa3 d83c
000001a0: cf0a 06bc 0b81 843c b1a7 313d 091d 9f3b
000001b0: c546 35bc e233 38bd cf78 27bd a957 bcbd
000001c0: 5f98 cdbd 6998 02be 4a76 bebd 1235 eabd
000001d0: 00b8 debd 4886 97bd a060 95bd f84f 6cbc
000001e0: 1fa3 9cbc e0ff 18bc 8b8c 50bd 4998 b7bd
000001f0: 037f dcbd 5792 93bd abb6 5ebd 8b33 2b3c
00000200: 1e41 b23d 8666 133e 3116 d13d e487 da3d
00000210: 050b 7c3d a153 553d 4ce8 783d 602a a53d
00000220: a7ec a33b 6295 7abc d06c 92bc b1da 9cbd
00000230: e061 8abd 9c5b 04be a60b 07be fb64 64bd
00000240: 3a19 78bd 56f4 09bd fbe4 f8bc b7e8 8bbc
00000250: acd0 393c 09c5 103c 5f50 9fbd 5ce6 c3bd
00000260: 559a c4bd 1748 cdbd 4e76 aabd 9150 d73c
00000270: 14d8 a83d 1ad1 dd3d ff3f b43d 26d0 723d
00000280: 0102 0d3e 6d4f ac3d 9ed2 ad3d fe97 173d
00000290: 341c 473d 6ce2 6cbb 6c72 f4bb 2a51 bbbc
000002a0: 7211 e7bd c86b adbd ed48 88bd 4115 aebd
000002b0: 8b4e a6bd eb5e 81bc 49f4 b53c 3681 b7bc
000002c0: fc1d e43c 957a b2bd 1268 a6bd 6418 00be
000002d0: f0c3 d0bd c78c 79bd bdb9 8ebd 0a8f 083c
000002e0: 7323 9d3d eda2 a53c c4dc ff3c ada1 f13d
000002f0: 7da4 0e3e 66df db3d fbaf e23d 1093 4e3d
00000300: 9799 9b3d bd8c 263d 6eb7 ae3a 6460 3fbd
00000310: 197f b9bd a80d d6bd 1767 97bd f628 b9bd
00000320: a2c0 89bc 8f2f 96bb 6e68 023d 964c d7bc
00000330: e896 32bd 3407 3cbd 65d8 85bd 6eca a4bd
00000340: 237f c9bd 533d 863c a190 1ebd a781 583d
00000350: 349c d13d 83ed c93c 733d 3a3d fdd7 fe3d
00000360: e461 393e 3861 143e 66c7 a93d 753b 9e3d
00000370: ac8d 373d 9130 14bc f54a 313c e3fe 76bc
00000380: 6023 c5bd 1035 40bd 2f8a 97bd 3fa3 2fbd
00000390: d88b a5bd 6378 4cbc 1d97 17bc fa10 00be
000003a0: da2f d0bd 7f25 ddbd a7c2 a7ba d2b4 91bc
000003b0: 912d 97bd 4143 17bc c511 a6bd f581 8dbd
000003c0: 363d c3bd 9c39 ebbc 4865 903d 6223 fb3d
000003d0: a5c8 333e 2c9d 483e 533d 1d3e dc65 c93d
000003e0: d690 8d3d b83e c43c 5ca8 fe3c 5469 25bd
000003f0: 7cbe 9fbd 076e a2bd e985 31bd be88 b4bd

lr_model.0.bias f4 [256]
-0.11996149 -0.015350546 0.00958507 -0.048821054 0.011523359 -0.01283202 -0.059014104 0.049884107
-0.03070701 -0.019168774 -0.04698764 -0.0073417495 -0.03492667 -0.0105113285 -0.05770535 -0.021352623
-0.061844017 0.02660427 -0.07887432 -0.019272694 -0.009996171 -0.059192725 0.08661166 -0.016506214
0.003589521 -0.020144977 0.0155098345 -0.0404021 0.023778154 -0.0251361 -0.034923684 0.07376489
0.0037792327 0.024649138 -0.008129247 -0.07217663 -0.04130255 -0.10936114 -0.0075849895 -0.016163906
-0.01323845 -0.061096564 0.011051551 -0.074332885 -0.10516973 -0.04916902 -0.032919884 -0.012926111
-0.033964165 0.023002258 0.00845429 0.004968429 0.028947296 -0.10358174 -0.009899039 0.01000749
-0.037889253 -0.018563587 -0.07853614 -0.066578634 0.013188221 -0.0081319045 0.018423142 -0.07168059
0.05076822 0.018432153 -0.02268419 0.025550822 -0.044936806 0.0057062544 -0.025541576 -0.03942102
0.015697092 -0.013260812 -0.010133114 -0.029965896 0.011141107 -0.045323133 -0.024738226 -0.073329955
0.03414966 0.013978156 -0.025065038 -0.011920149 -0.030433796 -0.055512603 0.010077311 -0.0061078835
0.01428839 0.017317314 -0.03620812 -0.042386554 -0.024975197 -0.07297979 -0.0034152241 -0.0009163632
-0.050239235 -0.10327889 -0.034106143 -0.012381922 0.027003027 0.014030261 -0.026418552 -0.06665897
-0.0067898207 0.0049881483 0.00037028242 0.015642613 0.028659739 -0.03972775 0.06972862 -0.020587146
-0.028018882 -0.022685153 0.009546849 -0.0166328 -0.030708984 -0.034614153 -0.0077079735 0.0062844893
0.04189078 -0.014773791 -0.08985424 -0.012027969 -0.019317422 -0.03750125 0.06277197 -0.10097321
0.0108637195 -0.015013605 0.003827799 -0.07546394 0.05968696 -0.037454236 -0.04609361 -0.030914532
-0.0076439534 0.029836822 0.0028866476 -0.0055275485 -0.09013257 -0.034768775 -0.034928385 -0.07642826
-0.0712995 0.0044468497 -0.026801657 0.012573416 -0.0736233 -0.017945377 0.079144806 -0.017170547
-0.036688592 -0.029176174 -0.022446364 -0.024816042 -0.13478795 0.018541446 -0.06333018 -0.08438504
0.003684028 -0.110105544 0.055220693 -0.01945661 -0.08326847 -0.013551725 -0.00015932969 0.026967555
-0.041090705 0.015260306 0.025935955 0.0051468294 -0.007026958 -0.04668244 -0.026802436 -0.00235856
0.012522005 -0.050350573 -0.013537395 -0.048525367 0.008541044 -0.097144105 -0.02983878 -0.04162355
-0.0758133 -0.03264198 -0.045244504 -0.010644168 -0.010188998 -0.011415629 0.02744492 -0.032055162
-0.015516047 -0.034821022 0.00878497 -0.0291762 0.02064069 -0.008374592 -0.023729725 -0.025524855
-0.023390846 0.01376319 0.0063398196 0.006076709 0.0070806206 -0.08410347 -0.051523976 -0.089307874
-0.018912038 -0.02939284 -0.006099126 0.0049775476 -0.018994587 -0.039132718 -0.021598725 -0.013392745
-0.0011087004 0.028841008 -0.014861571 -0.08556127 -0.07484207 -0.049393706 -0.019965716 0.01473792
-0.027831769 -0.038945477 -0.041902155 0.026178448 -0.036027376 0.030607501 -0.025568543 -0.034036215
-0.01970723 0.024767932 0.021573644 -0.03479861 -0.11117674 -0.03669038 -0.07383769 -0.013348673
-0.011265046 -0.009554986 -0.030036194 -0.03612317 -0.013939086 0.000699296 -0.10560898 0.014708086
-0.053697802 -0.011764946 0.018106744 -0.03316509 -0.028017625 -0.016024578 -0.049562044 -0.02185757
00000000: 5fae f5bd db80 7bbc b30a 1d3c 96f8 47bd
00000010: 79cc 3c3c 653d 52bc c6b8 71bd 4753 4c3d
00000020: 448d fbbc d507 9dbc 1d76 40bd 0f93 f0bb
00000030: 450f 0fbd b537 2cbc 725c 6cbd b2eb aebc
00000040: 2750 7dbd 33f1 d93c dc88 a1bd c5e1 9dbc
00000050: fbc6 23bc 1274 72bd 7461 b13d 0a38 87bc
00000060: 2b3e 6b3b 1407 a5bc f61c 7e3c ac7c 25bd
00000070: 67ca c23c 39ea cdbc 230c 0fbd 0c12 973d
00000080: 01ad 773b fdec c93c 8930 05bc 57d1 93bd
00000090: dd2c 29bd bcf8 dfbd 818b f8bb 2b6a 84bc
000000a0: 15e6 58bc 6440 7abd 9111 353c d73b 98bd
000000b0: 3a63 d7bd 7465 49bd 00d7 06bd 0ac8 53bc
000000c0: 021e 0bbd 3b6f bc3c dd83 0a3c 34ce a23b
000000d0: e122 ed3c aa22 d4bd 942f 22bc 75f6 233c
000000e0: c331 1bbd aa12 98bc 8ed7 a0bd 615a 88bd
000000f0: 6813 583c ae3b 05bc 21ec 963c 46cd 92bd
00000100: 56f2 4f3d 07ff 963c 32d4 b9bc f54f d13c
00000110: a80f 38bd 88fb ba3b 913c d1bc ef77 21bd
00000120: 3097 803c e043 59bc 5c05 26bc 0a7b f5bc
00000130: 3189 363c c0a4 39bd d2a7 cabc 042e 96bd
00000140: 84e0 0b3d a304 653c 3255 cdbc bb4c 43bc
00000150: 4c50 f9bc 2f61 63bd 4e1b 253c a424 c8bb
00000160: da19 6a3c 0add 8d3c f74e 14bd 869d 2dbd
00000170: c998 ccbc 6e76 95bd f4d1 5fbb 1838 70ba
00000180: a8c7 4dbd e283 d3bd e2b2 0bbd 8cdd 4abc
00000190: 7435 dd3c 2edf 653c b86b d8bc 8084 88bd
000001a0: 257d debb 9f73 a33b 7722 c239 f024 803c
000001b0: d4c7 ea3c 91b9 22bd e1cd 8e3d 60a6 a8bc
000001c0: db87 e5bc 37d6 b9bc 636a 1c3c 8341 88bc
000001d0: 6891 fbbc 92c7 0dbd 2b93 fcbb 1eee cd3b
000001e0: ab95 2b3d c50d 72bc 8005 b8bd f510 45bc
000001f0: 923f 9ebc e99a 19bd 978e 803d 0bcb cebd
00000200: befd 313c a0fb 75bc d0db 7a3b d78c 9abd
00000210: 507a 743d 9d69 19bd a7cc 3cbd 7940 fdbc
00000220: 217a fabb 5a6c f43c e92d 3d3b 7020 b5bb
00000230: 6d97 b8bd b469 0ebd 1111 0fbd 6b86 9cbd
00000240: 7905 92bd e1b6 913b 268f dbbc bb00 4e3c
00000250: d0c7 96bd 2f02 93bc ac16 a23d 3fa9 8cbc
00000260: c746 16bd df02 efbc 70e1 b7bc 034b cbbc
00000270: da05 0abe 3be4 973c 41b3 81bd 10d2 acbd
00000280: bc6f 713b 047f e1bd 182f 623d 7863 9fbc
00000290: a988 aabd 0e08 5ebc bd11 27b9 10eb dc3c
000002a0: ba4e 28bd 5d06 7a3c a477 d43c bca6 a83b
000002b0: 6542 e6bb 1636 3fbd c890 dbbc 1292 1abb
000002c0: 1829 4d3c 673c 4ebd f3cb 5dbc 89c2 46bd
000002d0: bcef 0b3c 7df3 c6bd 7570 f4bc 757d 2abd
000002e0: 0144 9bbd 99b3 05bd 4d52 39bd e064 2ebc
000002f0: c1ef 26bc 9e08 3bbc 2bd4 e03c 464c 03bd
00000300: 0537 7ebc 7da0 0ebd d6ee 0f3c ed02 efbc
00000310: aa16 a93c 9635 09bc d764 c2bc 8019 d1bc
00000320: 299e bfbc 017f 613c 43be cf3b 211f c73b
00000330: 8d04 e83b 713e acbd ce0a 53bd 0ce7 b6bd
00000340: 6bed 9abc 41c9 f0bc 2ddb c7bb b21a a33b
00000350: 899a 9bbc a149 20bd cfef b0bc 3e6d 5bbc
00000360: d051 91ba fa43 ec3c f27d 73bc bf3a afbd
00000370: cd46 99bd 0e51 4abd 248f a3bc 5177 713c
00000380: 73ff e3bc 4b85 1fbd 98a1 2bbd 2f74 d63c
00000390: 7191 13bd 95bc fa3c 1f75 d1bc 8f69 0bbd
000003a0: 0f71 a1bc 1ee6 ca3c 36bb b03c fd88 0ebd
000003b0: a1b0 e3bd a748 16bd 3738 97bd 64b4 5abc
000003c0: 0791 38bc 848c 1cbc 770e f6bc e4f5 13bd
000003d0: c460 64bc f650 373a 8549 d8bd 2ffa 703c
000003e0: 3af2 5bbd c3c1 40bc 9854 943c 1ed8 07bd
000003f0: 3885 e5bc fa45 83bc 9201 4bbd a60e b3bc

lr_model.3.weight f4 [128, 256]
-0.12491078 -0.007216106 0.028197596 0.06844276 0.052643705 0.029942226 0.10173984 0.034696482
0.047850337 0.025246829 -0.25272045 0.051957328 0.016720729 0.07627832 -0.072636545 0.015563414
-0.22122242 -0.066031076 0.11658531 -0.007017679 0.093675084 0.13327992 -0.0019159811 0.022580435
-0.14018323 0.018560383 -0.019030016 0.06589568 -0.012481734 -0.012866103 0.041744735 -0.055883568
0.046214014 -0.05788164 0.14588276 0.09362067 0.019479495 0.12684514 -0.0077760536 0.03133973
-0.008361703 -0.007993466 0.043253046 0.026149994 0.15191463 0.03732436 0.052346714 0.17435183
0.0036624882 -0.009303419 0.025694938 0.10153179 0.021420723 0.00961258 -0.0095793335 0.05892325
0.036970813 -0.10515229 -0.059902534 -0.0550225 -0.042458456 0.119489096 0.025130676 0.01866167
-0.026493879 0.0024099476 0.031876955 -0.19040947 0.12850237 0.011589229 -0.054956526 0.02041347
0.008727072 0.04053132 0.047090072 -0.06580788 -0.008147796 0.110287316 -0.020770263 0.025897602
-0.3567065 -0.017598089 0.051216763 0.05974147 0.071106456 0.009978878 -0.050868995 -0.038415127
0.031222163 0.013550357 0.042789277 -0.05959454 0.031191748 -0.17594758 -0.046029583 -0.09699086
0.023174224 0.049848035 -0.20054007 -0.01673864 0.012826186 -0.051720925 -0.1296855 -0.011504877
-0.060524065 -0.5380757 0.015711289 -0.031991318 -0.055000592 0.039147366 -0.056352254 0.039919004
0.05197435 0.013750367 -0.045795072 0.017488297 -0.020826181 -0.041353866 -0.40121496 0.043701082
-0.056300733 0.03785514 -0.19654995 -0.041774027 0.05875678 0.036315326 0.00030798014 -0.029586125
0.1269182 0.055274907 -0.047170825 -0.13750821 0.06583296 -0.012909865 0.14238714 -0.021565998
0.038404692 0.00090479595 0.039497253 0.11365031 0.054708254 0.027938668 0.083597906 0.10061027
0.13578007 -0.030523548 0.047248587 0.015049431 -0.061317354 -0.022476254 0.018541722 0.020363213
0.040657323 0.053199034 0.059734486 -0.008034335 0.075275086 -0.0181624 -0.32752165 -0.1319362
-0.3412811 0.21813263 -0.02915744 0.014867092 -0.15849793 0.03679644 -0.048842292 0.1012434
-0.3852474 0.02264041 -0.034728833 -0.00023041121 -0.1168369 -0.072942406 0.14577603 0.008640504
-0.034889076 0.18067102 -0.017970573 0.00363233 0.021794235 -0.10162325 0.14298841 0.06307962
-0.05396799 0.20729932 0.12884738 -0.060091224 0.01060302 -0.05018658 -0.036124602 -0.14644805
-0.027928196 -0.13511531 -0.10258649 -0.022124398 -0.004807902 0.058207437 -0.0328852 -0.076855116
0.01765825 0.06463184 -0.0055367565 0.032833956 -0.07611521 0.03192866 -0.0442864 0.04710264
0.11680432 -0.0037987249 0.0074542873 0.007470233 0.015434393 -0.03045179 -0.02299337 0.12344929
0.047157384 0.06437702 0.12883945 -0.060946256 0.22785465 0.08896553 -0.023170272 0.05158832
0.03549525 -0.062736765 -0.20640056 0.051571224 -0.024534564 -0.05984202 0.05071822 -0.002202768
-0.0028279836 -0.009840449 -0.11680203 -0.053133518 0.110857435 0.05083759 -0.10830413 0.02821096
0.09170883 -0.01494557 0.012973354 -0.0043822583 0.037983187 0.038371243 -0.059792563 -0.025424583
-0.109050475 -0.079882205 0.0067573134 0.054864284 0.05278982 0.042816177 0.1223453 0.040773295
00000000: 39d1 ffbd 1675 ecbb a5fe e63c b82b 8c3d
00000010: eda0 573d 6649 f53c fa5c d03d e61d 0e3d
00000020: b7fe 433d 70d2 ce3c 9364 81be 35d1 543d
00000030: e9f9 883c cf37 9c3d 78c2 94bd b1fd 7e3c
00000040: 2188 62be 4d3b 87bd 47c4 ee3d 8ff4 e5bb
00000050: b9d8 bf3d 887a 083e a821 fbba 9bfa b83c
00000060: 318c 0fbe f20b 983c d6e4 9bbc 50f4 863d
00000070: 3080 4cbc 59cc 52bc 87fc 2a3d 2be6 64bd
00000080: e84a 3d3d 4c15 6dbd 4a62 153e 32bc bf3d
00000090: 7693 9f3c b1e3 013e 44ce febb 175e 003d
000000a0: 86ff 08bc 07f7 02bc 1b2a 313d 8338 d63c
000000b0: 828f 1b3e 6ee1 183d 8269 563d 4989 323e
000000c0: 5b06 703b 5e6d 18bc 317e d23c e6ef cf3d
000000d0: 837a af3c 157e 1d3c a3f2 1cbc 8159 713d
000000e0: b56e 173d 155a d7bd 5c5c 75bd 465f 61bd
000000f0: ebe8 2dbd b3b6 f43d d9de cd3c 5ce0 983c
00000100: b109 d9bc 36f0 1d3b 6991 023d b3fa 42be
00000110: 2096 033e c0e0 3d3c 181a 61bd 263a a73c
00000120: fefb 0e3c 2b04 263d 85e1 403d 48c6 86bd
00000130: 557e 05bc 51de e13d 6626 aabc 3527 d43c
00000140: 3ca2 b6be de29 90bc abc8 513d 79b3 743d
00000150: 43a0 913d 737e 233c 025c 50bd 2e59 1dbd
00000160: 9fc5 ff3c 5102 5e3c cf43 2f3d 6819 74bd
00000170: d685 ff3c 9a2b 34be 8489 3cbd 25a3 c6bd
00000180: dfd7 bd3c 742d 4c3d 605a 4dbe 791f 89bc
00000190: ec24 523c 52d9 53bd 47cc 04be f47e 3cbc
000001a0: 15e8 77bd 54bf 09bf f6b4 803c 5409 03bd
000001b0: 4d48 61bd fd58 203d 9fd1 66bd 1c82 233d
000001c0: 0ee3 543d 3849 613c 9d93 3bbd 9e43 8f3c
000001d0: ab9b aabc ac62 29bd 0c6c cdbe e8ff 323d
000001e0: 999b 66bd fe0d 1b3d 6444 49be 3e1b 2bbd
000001f0: f3aa 703d 61bf 143d 6578 a139 9a5e f2bc
00000200: d8f6 013e f167 623d 3236 41bd f4ce 0cbe
00000210: 6ed3 863d e683 53bc efcd 113e 2dab b0bc
00000220: 3d4e 1d3d d42f 6d3a dfc7 213d 7ec1 e83d
00000230: c315 603d a2df e43c 6135 ab3d c20c ce3d
00000240: ee09 0b3e 850c fabc bc87 413d e391 763c
00000250: e827 7bbd 1f20 b8bc cfe4 973c c1d0 a63c
00000260: 4b88 263d 3be7 593d 26ac 743d 72a2 03bc
00000270: d329 9a3d 50c9 94bc ebb0 a7be 491a 07be
00000280: 65bc aebe 295e 5f3e 95db eebc 1a95 733c
00000290: 484d 22be ddb7 163d db0e 48bd b358 cf3d
000002a0: 263f c5be 6278 b93c d23f 0ebd 8a9a 71b9
000002b0: 2f48 efbd d462 95bd 5046 153e e790 0d3c
000002c0: d9e7 0ebd d301 393e 0637 93bc 630c 6e3b
000002d0: d389 b23c da1f d0bd 8e6b 123e e32f 813d
000002e0: 8a0d 5dbd 4646 543e 91f0 033e 3722 76bd
000002f0: 4ab8 2d3c 7190 4dbd 64f7 13bd 7af6 15be
00000300: acc9 e4bc ab5b 0abe de18 d2bd 3a3e b5bc
00000310: 9b8b 9dbb ec6a 6e3d a2b2 06bd 3766 9dbd
00000320: 09a8 903c b35d 843d ae6d b5bb e67c 063d
00000330: 4be2 9bbd a0c7 023d a865 35bd b3ee 403d
00000340: 1a37 ef3d 07f4 78bb 1843 f43b dbc8 f43b
00000350: 89e0 7c3c 0876 f9bc 985c bcbc fbd2 fc3d
00000360: 1a28 413d 19d8 833d 7dee 033e c8a2 79bd
00000370: bb52 693e 8f33 b63d 95cf bdbc 464e 533d
00000380: 7863 113d 227c 80bd ab5a 53be 593c 533d
00000390: b6fc c8bc e81c 75bd e9bd 4f3d 515c 10bb
000003a0: b155 39bb d639 21bc e735 efbd 88a2 59bd
000003b0: 3909 e33d 143b 503d 8ece ddbd ac1a e73c
000003c0: d7d1 bb3d 44de 74bc 318e 543c 0c99 8fbb
000003d0: 4294 1b3d 2a2b 1d3d 0ce9 74bd 3747 d0bc
000003e0: db55 dfbd 4899 a3bd 746c dd3b 5fb9 603d
000003f0: 233a 583d 0460 2f3d 2c90 fa3d e601 273d

lr_model.3.bias f4 [128]
-0.045199506 0.4826588 0.11121888 -0.16613129 -0.06936634 0.37773052 -0.022226544 0.47762623
0.042772323 -0.030426241 -0.052410454 -0.10962439 0.22066267 0.36223626 0.055718776 -0.12899145
-0.03192217 0.24275464 0.053414594 -0.03580917 0.35734046 -0.07966454 -0.20391832 -0.0033335844
0.13368672 0.1901182 0.123233065 0.06583521 0.15616041 -0.018118007 0.41828796 0.14903039
0.63315207 0.14318497 -0.005185319 0.42938015 0.3038137 0.3375595 -0.15486139 -0.17638548
0.47085285 -0.17866598 0.26374158 0.19647777 -0.039405145 0.08766123 -0.010586683 0.15306407
0.1822272 0.26535615 -0.056889247 0.20771773 0.13645059 0.06516558 0.32201546 0.26470423
0.10913091 -0.066437945 0.2990134 0.14886686 0.23961458 0.29421338 0.2534404 0.011930001
-0.03171267 0.04101055 0.10797537 -0.10403052 -0.14295562 -0.2505516 0.32766885 0.3062522
0.16642135 -0.11990247 0.57341504 -0.0974215 0.24804446 0.11531114 0.17767666 0.45878416
0.314201 -0.07671142 -0.24497628 0.26025075 -0.10517588 0.33772036 0.067540675 0.09002064
0.15296026 -0.08455981 0.21796328 -0.16854064 -0.06275068 -0.08162676 0.33681294 -0.18506493
-0.055258486 -0.24818338 0.059686884 0.16965449 -0.060176276 0.0041793417 0.25689062 0.14006238
0.26168507 0.21753432 -0.1593143 0.08992879 0.034840494 0.22490466 0.19776702 0.01804398
-0.09611725 0.019392543 -0.017069332 0.31097317 0.23859924 -0.060943335 -0.094573416 0.1571736
-0.07564698 -0.17233491 -0.23057462 0.010039656 0.10505353 -0.0039051778 0.17434405 0.2146681
00000000: 1e23 39bd 0e1f f73e b9c6 e33d 521e 2abe
00000010: f10f 8ebd e565 c13e 7114 b6bc 6d8b f43e
00000020: 0832 2f3d 7440 f9bc 58ac 56bd c182 e0bd
00000030: 65f5 613e 0877 b93e 5f39 643d 5616 04be
00000040: d2c0 02bd ac94 783e 43c9 5a3d a3ac 12bd
00000050: 54f5 b63e 2a27 a3bd f7cf 50be 4478 5abb
00000060: 2ce5 083e 58ae 423e 9e61 fc3d 9cd4 863d
00000070: 84e8 1f3e 376c 94bc d729 d63e 6c9b 183e
00000080: 4116 223f 159f 123e 9ce9 a9bb b7d7 db3e
00000090: 788d 9b3e 99d4 ac3e fc93 1ebe 659e 34be
000000a0: a013 f13e 37f4 36be 2309 873e 7831 493e
000000b0: 4a67 21bd bb87 b33d c473 2dbc d4bc 1c3e
000000c0: c499 3a3e c3dc 873e b304 69bd f5b3 543e
000000d0: b4b9 0b3e 8875 853d 36df a43e 5087 873e
000000e0: 0780 df3d 9e10 88bd 4918 993e 8e70 183e
000000f0: 865d 753e 23a3 963e f1c2 813e 0d76 433c
00000100: 25e5 01bd aefa 273d 3122 dd3d f40d d5bd
00000110: f562 12be 4d48 80be 36c4 a73e 17cd 9c3e
00000120: 5c6a 2a3e 6d8f f5bd 54cb 123f ec84 c7bd
00000130: 5eff 7d3e 3f28 ec3d dff0 353e c2e5 ea3e
00000140: f4de a03e e11a 9dbd 10db 7abe 963f 853e
00000150: 7466 d7bd afe9 ac3e c452 8a3d be5c b83d
00000160: 9da1 1c3e b22d adbd c431 5f3e eb95 2cbe
00000170: 6e83 80bd ee2b a7bd bf72 ac3e a981 3dbe
00000180: b956 62bd c923 7ebe 3c7a 743d e8b9 2d3e
00000190: 667b 76bd dcf2 883b 2b87 833e 836c 0f3e
000001a0: 96fb 853e 51c1 5e3e 4a23 23be 962c b83d
000001b0: e8b4 0e3d 684d 663e 7083 4a3e f8d0 933c
000001c0: 1fd9 c4bd 1cdd 9e3c fcd4 8bbc e037 9f3e
000001d0: 5c53 743e b89f 79bd b5af c1bd 1ef2 203e
000001e0: ceec 9abd 9078 30be c11b 6cbe 5f7d 243c
000001f0: 4e26 d73d 03ee 7fbb 3f87 323e f4d1 5b3e

lr_model.6.weight f4 [10, 128]
0.09284598 -0.1306102 -0.08930261 -0.13726465 0.045133356 -0.17763448 -0.09533505 0.17514081
0.09421867 0.11137262 -0.11193099 -0.08679148 -0.051128224 -0.09631013 0.1401923 -0.095308386
0.013474952 -0.25602627 -0.00042425244 0.01412004 -0.18303989 -0.062223315 -0.1819213 0.18203975
-0.041490708 0.106104285 0.0057220585 -0.13653623 0.11962146 0.038540214 -0.36469024 -0.20979935
-0.062988296 0.069261536 0.05312825 0.039048374 -0.16739324 -0.14403921 0.16586608 0.051688984
-0.06453492 0.11485156 0.060459755 0.10388219 -0.029397406 0.019205844 -0.010784895 -0.19630818
-0.0020467346 0.11600076 0.08236405 0.06405999 -0.1394442 0.0016702887 -0.38588703 -0.033078928
-0.09171058 0.05023755 -0.26591998 -0.14486071 0.053568363 -0.37442952 0.054397717 0.13218315
-0.049987264 -0.07163637 0.09299771 -0.28713065 -0.11411092 -0.15029928 -0.14607383 0.15105751
-0.25733522 -0.24924289 0.001069523 -0.026150534 0.06318848 0.06702817 0.17257808 0.053602315
0.10202683 0.14123048 -0.1483522 0.04637573 0.07876016 -0.34890985 0.16828221 -0.21181107
-0.111453265 -0.20955083 0.26784503 -0.22633323 0.038224593 -0.09169525 -0.032568526 0.039167553
-0.24243023 0.06909662 0.12041931 0.14021619 0.0845997 -0.36439902 0.114324026 -0.22629337
-0.014756602 0.020292735 -0.38552588 -0.018815197 -0.054285437 -0.20425215 -0.24213132 0.0824847
-0.0988111 -0.0686288 0.012682556 0.1659061 0.109953485 0.1635139 -0.13880798 -0.20591189
0.11920831 0.05964666 -0.018768126 0.09598553 -0.019003533 -0.40466082 -0.17691326 -0.20845196
0.16784376 0.048858132 -0.0342358 -0.094046876 0.05236193 -0.2745527 0.11916732 0.07805608
-0.22068103 0.029819503 0.090832725 0.08186577 -0.031749304 -0.17179283 -0.33517477 0.09150057
-0.2319741 0.14298165 0.03722263 -0.1958249 -0.009519088 -0.08212482 0.18337524 -0.2150068
-0.10223903 0.031294804 0.02395981 -0.13802049 -0.37594143 -0.17292754 -0.20278041 -0.05539053
-0.05523129 -0.0431546 -0.0017010578 0.1254722 0.10327558 -0.025683453 -0.13564958 -0.3110452
-0.13514876 0.15375546 -0.16140063 0.18431757 -0.10202633 -0.02274663 0.12475148 -0.103381164
0.0020969738 -0.093785875 0.07941045 -0.20905158 0.036157936 -0.27506232 -0.09194336 -0.22222221
-0.37548003 0.04478575 0.107375786 0.006109583 -0.11143321 -0.18655898 0.21960129 0.07530755
0.0655062 -0.13435633 -0.061224762 0.07407589 0.10446925 -0.09742464 -0.2951773 0.08677288
0.06823625 -0.070569955 -0.39485595 -0.05501278 0.13358535 0.12674549 0.030996531 0.09033501
-0.27080935 0.13913046 -0.03245309 -0.095253326 -0.3822739 0.04054475 -0.270174 -0.013568239
0.37300032 0.17408942 -0.26124206 0.00014577972 0.10941813 0.12074017 -0.37215117 0.09599424
-0.14641313 0.018044109 -0.22232921 -0.19841674 -0.0042687785 0.0035896453 0.09369395 0.06432296
-0.0719457 0.104716584 0.09399957 0.1035232 0.11464265 0.17149971 -0.2277552 -0.3473876
0.11482878 0.048624486 0.01013713 0.16742012 -0.29659578 0.014250213 -0.1320234 -0.2864781
0.07349813 -0.04831911 0.044603087 -0.059536226 -0.13122904 0.15577966 0.052110553 -0.09492918
00000000: 0826 be3d aebe 05be 49e4 b6bd 1b8f 0cbe
00000010: c1dd 383d d0e5 35be 063f c3bd 1d58 333e
00000020: b8f5 c03d 5417 e43d 133c e5bd bbbf b1bd
00000030: d46b 51bd 3f3e c5bd 928e 0f3e 0b31 c3bd
00000040: 0cc6 5c3c e015 83be 336e deb9 be57 673c
00000050: cf6e 3bbe e0dd 7ebd 9449 3abe a168 3a3e
00000060: 29f2 29bd 344d d93d 1b80 bb3b 27d0 0bbe
00000070: 19fc f43d 58dc 1d3d aeb8 babe a4d5 56be
00000080: 0200 81bd fed8 8d3d 029d 593d 30f1 1f3d
00000090: 2269 2bbe 047f 13be ccd8 293e d4b7 533d
000000a0: e22a 84bd 4b37 eb3d a6a4 773d 30c0 d43d
000000b0: d4d2 f0bc 9355 9d3c 21b3 30bc 0305 49be
000000c0: 8222 06bb ce91 ed3d 7cae a83d e231 833d
000000d0: 76ca 0ebe 97ed da3a fc92 c5be c57d 07bd
000000e0: c2d2 bbbd e4c5 4d3d aa26 88be 5e56 14be
000000f0: 806a 5b3d 3ab5 bfbe 24d0 5e3d 055b 073e
00000100: 72bf 4cbd 17b6 92bd 9575 be3d ca02 93be
00000110: fcb2 e9bd 0ee8 19be 6194 15be d2ae 1a3e
00000120: 71c1 83be 8739 7fbe 3d2f 8c3a a539 d6bc
00000130: f668 813d 1146 893d 4fb8 303e 1a8e 5b3d
00000140: 71f3 d03d b99e 103e a4e9 17be 7af4 3d3d
00000150: 024d a13d 50a4 b2be 2c52 2c3e 00e5 58be
00000160: 9c41 e4bd 7e94 56be fc22 893e e6c3 67be
00000170: 6491 1c3d b8ca bbbd 9366 05bd 286e 203d
00000180: a13f 78be 8782 8d3d 669e f63d d594 0f3e
00000190: 9c42 ad3d 8292 babe b722 ea3d 73b9 67be
000001a0: adc5 71bc f33c a63c a663 c5be 5422 9abc
000001b0: 685a 5ebd 7a27 51be 46f1 77be bded a83d
000001c0: 795d cabd 428d 8cbd 7fca 4f3c 4ae3 293e
000001d0: 4b2f e13d 3070 273e ae23 0ebe 91da 52be
000001e0: 7d23 f43d 0e50 743d 9dbf 99bc 1094 c43d
000001f0: 4cad 9bbc b42f cfbe c028 35be 6e74 55be
00000200: 3cdf 2b3e 771f 483d d73a 0cbd a69b c0bd
00000210: 7779 563d 2c92 8cbe ff0d f43d dedb 9f3d
00000220: 35fa 61be 0848 f43c 8206 ba3d 3ea9 a73d
00000230: 8f0b 02bd 76ea 2fbe 079c abbe a764 bb3d
00000240: 9e8a 6dbe c869 123e c276 183d 5386 48be
00000250: f3f5 1bbc 0f31 a8bd b8c6 3b3e be2a 5cbe
00000260: b262 d1bd fb2e 003d 5d47 c43c 3e55 0dbe
00000270: 657b c0be eb13 31be aba5 4fbe 2ee1 62bd
00000280: 353a 62bd e1c2 30bd 07f6 deba c97b 003e
00000290: 2682 d33d 1b66 d2bc b9e7 0abe 5141 9fbe
000002a0: 7064 0abe 1272 1d3e 3546 25be bfbd 3c3e
000002b0: 2ef3 d0bd 2457 babc b47d ff3d 81b9 d3bd
000002c0: 626d 093b cf12 c0bd f2a1 a23d 9e11 56be
000002d0: 581a 143d f8d4 8cbe cd4c bcbd 388e 63be
000002e0: eb3e c0be 4371 373d d6e7 db3d e632 c83b
000002f0: 1837 e4bd 5109 3fbe 29df 603e d83a 9a3d
00000300: 1d28 863d b594 09be d1c6 7abd 1ab5 973d
00000310: f9f3 d53d 9286 c7bd 7b21 97be fbb5 b13d
00000320: 72bf 8b3d fb86 90bd 8f2a cabe 1555 61bd
00000330: 99ca 083e 92c9 013e 70ec fd3c 9001 b93d
00000340: 86a7 8abe 3778 0e3e 88ed 04bd 2d14 c3bd
00000350: 68b9 c3be 4012 263d 3f54 8abe 524d 5ebc
00000360: e6f9 be3e 7f44 323e 85c1 85be 72dc 1839
00000370: 9d16 e03d 9f46 f73d 998a bebe a198 c43d
00000380: 53ed 15be 3dd1 933c 45aa 63be c22d 4bbe
00000390: 1ce1 8bbb 4140 6b3b 9de2 bf3d c2bb 833d
000003a0: 4458 93bd a675 d63d d982 c03d f903 d43d
000003b0: c4c9 ea3d 9f9d 2f3e a938 69be cadc b1be
000003c0: 5a2b eb3d 782a 473d 3416 263c 2e70 2b3e
000003d0: 67db 97be ba79 693c 2431 07be 42ad 92be
000003e0: 3086 963d 42ea 45bd bab1 363d 42dc 73bd
000003f0: e860 06be b484 1f3e e071 553d 3b6a c2bd

lr_model.6.bias f4 [10]
-0.10261961 -0.115948014 -0.02086682 0.01068968 -0.006354875 -0.10780803 0.096015185 -0.34295464
0.48233283 0.20232257
00000000: 3b2a d2bd 2776 edbd e5f0 aabc c523 2f3c
00000010: 8e3c d0bb 75ca dcbd 9ca3 c43d c097 afbe
00000020: 54f4 f63e a62d 4f3e
